…
 flipud=0.0, fliplr=0.5, mosaic=1.0, mixup=0.0, copy_paste=0.0, cfg=None, v5loader=False, tracker=botsort.yaml, save_dir=runs\detect\train3
Downloading https:\ultralytics.com\assets\Arial.ttf to C:\Users\Asus\AppData\Roaming\Ultralytics\Arial.ttf...
100%|████████████████████████████████████████████████████████████████████████████████████████████████████████████████████████████████| 755k/755k [00:00<00:00, 903kB/s]
Overriding model.yaml nc=80 with nc=2

                   from  n    params  module                                       arguments
  0                  -1  1      1392  ultralytics.nn.modules.Conv                  [3, 48, 3, 2]
  1                  -1  1     41664  ultralytics.nn.modules.Conv                  [48, 96, 3, 2]
  2                  -1  2    111360  ultralytics.nn.modules.C2f                   [96, 96, 2, True]
  3                  -1  1    166272  ultralytics.nn.modules.Conv                  [96, 192, 3, 2]
  4                  -1  4    813312  ultralytics.nn.modules.C2f                   [192, 192, 4, True]
  5                  -1  1    664320  ultralytics.nn.modules.Conv                  [192, 384, 3, 2]
  6                  -1  4   3248640  ultralytics.nn.modules.C2f                   [384, 384, 4, True]
  7                  -1  1   1991808  ultralytics.nn.modules.Conv                  [384, 576, 3, 2]
  8                  -1  2   3985920  ultralytics.nn.modules.C2f                   [576, 576, 2, True]
  9                  -1  1    831168  ultralytics.nn.modules.SPPF                  [576, 576, 5]
 10                  -1  1         0  torch.nn.modules.upsampling.Upsample         [None, 2, 'nearest']
 11             [-1, 6]  1         0  ultralytics.nn.modules.Concat                [1]
 12                  -1  2   1993728  ultralytics.nn.modules.C2f                   [960, 384, 2]
 13                  -1  1         0  torch.nn.modules.upsampling.Upsample         [None, 2, 'nearest']
 14             [-1, 4]  1         0  ultralytics.nn.modules.Concat                [1]
 15                  -1  2    517632  ultralytics.nn.modules.C2f                   [576, 192, 2]
 16                  -1  1    332160  ultralytics.nn.modules.Conv                  [192, 192, 3, 2]
 17            [-1, 12]  1         0  ultralytics.nn.modules.Concat                [1]
 18                  -1  2   1846272  ultralytics.nn.modules.C2f                   [576, 384, 2]
 19                  -1  1   1327872  ultralytics.nn.modules.Conv                  [384, 384, 3, 2]
 20             [-1, 9]  1         0  ultralytics.nn.modules.Concat                [1]
 21                  -1  2   4207104  ultralytics.nn.modules.C2f                   [960, 576, 2]
 22        [15, 18, 21]  1   3776854  ultralytics.nn.modules.Detect                [2, [192, 384, 576]]
Model summary: 295 layers, 25857478 parameters, 25857462 gradients, 79.1 GFLOPs

Transferred 469/475 items from pretrained weights
optimizer: SGD(lr=0.01) with parameter groups 77 weight(decay=0.0), 84 weight(decay=0.0005), 83 bias
train: Scanning E:\deketeksislotparkir\parkirslot\train\labels... 48 images, 0 backgrounds, 0 corrupt: 100%|██████████| 48/48 [00:01<00:00, 24.87it/s]
…
